TrainingMNIST/best_model.tflite (tflite, 807884 bytes, 10 tensors)

sequential_2/conv2d_6/BiasAdd/ReadVariableOp f4 [28]
00000000: a84f 75ba 006e 1bbc ebc4 a3bc dd44 0b3d
00000010: 5ff8 cdba 129b e9bb 95d4 543d c27d 6cbd
00000020: 2156 70bb 7f0f 89bd f46a e0bc b2d2 67bc
00000030: 5669 ebbb 91cb af3c 3e12 1fbc 1778 2abd
00000040: 609c 54bd 4f6b 2b3c 5020 5dbc fdcc 21bc
00000050: 5cc0 46bc fcac 56bd 6fd1 eb3c c1fc 823c
00000060: aee2 67bc 4fac e1bb 4a37 a43c 8ac1 babc
-0.0009357878 -0.009486675 -0.019991359 0.03400122 -0.0015714279 -0.0071290815 0.051960547 -0.05773712
-0.003667243 -0.06692409 -0.02739475 -0.014149355 -0.007184188 0.021459373 -0.009708939 -0.041618433
-0.051906943 0.010462596 -0.013496473 -0.009875533 -0.012130823 -0.052411065 0.02878639 0.015989663
-0.014153166 -0.006886996 0.020045895 -0.022797365

sequential_2/conv2d_7/BiasAdd/ReadVariableOp f4 [56]
00000000: 8f55 5abb 381a 833c 1a15 2e3d 1136 df3c
00000010: 1e32 9f3d cc56 ff3b 318a 0a3b 6ae7 5a3d
00000020: fb89 5ebc 4ee5 a0bc 25b8 fe3c 5184 963c
00000030: 3f8e 243c f8ae 063d 4c76 33bc 0d84 2c3c
00000040: 635f febc b336 9cbb 6d5c 393d c4b7 aa3c
00000050: a75d 6a3c bfc9 a7bb c3a2 943d 363d 633d
00000060: a356 71bc 3e46 6c3c f790 96bb 76b6 4a3d
00000070: 2ff5 0d3d 73bd 23bc 8393 6f3d 9b96 e13c
00000080: c16b 1f3c 2bcb 793d a72f 893d 5ce4 23bd
00000090: 347e ea3c 2103 373d 4a84 41bd 6e27 af3c
000000a0: afaa 673b 393b e93b 9d7d fa3c 83cb 95bc
000000b0: be33 973c 4b28 f0bc 9040 523d 96ee 063c
000000c0: a64b 803c 0726 5f3d 8108 953d a683 013d
000000d0: 86f3 3fbc 9eb7 833d 48ef 543d e67a 8dbd
-0.0033315157 0.016003713 0.042500593 0.02724746 0.07773231 0.0077923294 0.0021139497 0.05344335
-0.013582702 -0.019640591 0.031093666 0.01837364 0.01004368 0.032881707 -0.010953497 0.01052953
-0.031051343 -0.004767263 0.04525416 0.02083958 0.014304555 -0.0051204856 0.07257607 0.055478297
-0.014730128 0.014421044 -0.004594918 0.049490415 0.034657653 -0.009993899 0.058490288 0.027537635
0.00973028 0.06098477 0.06698542 -0.040012702 0.028624631 0.04468072 -0.0472453 0.021381106
0.0035349538 0.0071176556 0.030577475 -0.018285519 0.01845729 -0.029316088 0.051331103 0.008235594
0.015661072 0.054479625 0.072770126 0.03161969 -0.011715775 0.064315066 0.05198601 -0.06908207

sequential_2/conv2d_8/BiasAdd/ReadVariableOp f4 [56]
00000000: 9a99 92bb f251 28bb 0e8d 83bc eb5e b93c
00000010: e78c ac3c 5a9a 60bd 1aa6 7fbc 2a55 513c
00000020: 5d2f 383c ef95 00bc 0a8f ebbc 07ef dfbc
00000030: 8699 b7bc 48c4 14bc 7ecc 613b 5d64 48bc
00000040: 7930 14bb a9e2 44bc a0c2 b4bc 10ff d93b
00000050: d844 b539 04bf 7bbc 66be 1f3c d71f fdbb
00000060: 8d2e f4bc 3cf8 0e3b 1ccc c73c 73f2 10bc
00000070: 2925 473c b969 14bd 6642 0f3c 217f f33a
00000080: 8da9 9abb 0264 88bc b552 a8bc 98ef ea3c
00000090: bcb3 f43a 2964 8d3c 18cf b63b 5630 2c3b
000000a0: 6ec3 eb3c 7b97 123a b67f 3fbc 4db3 3f3c
000000b0: c274 7bbc 2775 2d3c 748b 19bd 8669 34bb
000000c0: cdd5 6ebd 44d7 3bbc d721 b2bc ff5b 7dbc
000000d0: 3b20 40bc b0a0 b93c 0a8d a8bc 3785 a13b
-0.004473877 -0.002568361 -0.016058471 0.022628268 0.021063281 -0.0548347 -0.015603567 0.012776652
0.011241761 -0.007848247 -0.02875473 -0.027335657 -0.022412073 -0.00908 0.0034454162 -0.01223096
-0.00226119 -0.012016931 -0.02206546 0.0066527203 0.00034574303 -0.015365366 0.009749984 -0.007724743
-0.029807353 0.002181544 0.02438932 -0.008846867 0.012154856 -0.036233637 0.008743858 0.0018577316
-0.004719919 -0.01664925 -0.02054725 0.0286787 0.0018669288 0.017259674 0.0055788867 0.0026273928
0.028779712 0.00055920304 -0.0116881635 0.0117004635 -0.015347661 0.010587013 -0.03748651 -0.0027528717
-0.058309365 -0.011464898 -0.021744652 -0.015463828 -0.011726434 0.02265963 -0.020575065 0.0049292105

sequential_2/conv2d_6/Conv2D f4 [28, 4, 4, 1]
00000000: b76a a2bd c888 8fbe 75f0 b3be 4510 69be
00000010: e2a4 963d 4c8d cebc 132f b83d f244 b03d
00000020: 60bc 603e f0bc a93d edce 353e 4fd9 1c3e
00000030: 8b39 3a3e dafd cb3b f922 d13d 98c3 82bc
00000040: 3b6a 3bbe a8ac 813d 4841 da3d 0a3a 503d
00000050: 6a66 93be bafc d8bd 071b 98bd 66ed 313e
00000060: a0a1 19be 8b00 37be def1 9c3d e193 3c3e
00000070: d0a6 5d3b ed73 42bd 651d 91bd 165e de3d
00000080: 1842 26be ee18 1ebd eb94 2dbd 13f8 a43d
00000090: 2383 063d d8f1 813d a0fa 85bc 1c74 a6be
000000a0: 4557 fb3d 52a6 783d 2eb7 aabc 649b 95be
000000b0: 767d afbd 90a5 063e 5716 893e b20a 553d
000000c0: d641 233e 8aa5 153e deec b1bd 7696 88be
000000d0: f605 7d3e fc1a 07be 20cc debe 2dbf a1bc
000000e0: 6e61 c9bd 9ab0 0abf d13d f6bd a256 2b3e
000000f0: 56d0 e4be 6c76 44bd 8e2d 0d3e f61e 453e
00000100: 67ee 5f3a b3b6 313e 8a95 ed3d c852 053e
00000110: d4f7 b6bc 8635 d4bc aa79 2e3e e0e0 623d
00000120: c106 55be e80b 46be f3be 023d 13c2 c63d
00000130: 83e6 023d f5e6 91be 9de6 76be 2b58 9fbd
00000140: a326 ff3c f037 fb3d 3e6f ac3d 713d a8bd
00000150: a1fc 813d 9552 e83d 682a 2b3d 1325 43be
00000160: 6d96 3abc 66f1 e23d df74 183c c79e 5abe
00000170: c5b0 ce3d 9f28 8a3c 0fc1 8c3d e57c 5fbd
00000180: 2bd2 efbd 9dcf 0dbe 8439 953d 9bef 443e
00000190: 72e2 e4bd d646 11be d083 45bc 2762 843e
000001a0: 0786 8fbd fc59 e2be 4013 adbe 42c2 8fbc
000001b0: d4c5 813e a5d8 7a3d ec87 21be fce7 aabd
000001c0: 07f2 57bc d2fa 29bd e921 08bd 1544 733d
000001d0: 40a6 1bbe 66dd ac3b d6b4 133e 2aba 173e
000001e0: d8c5 263c 2446 923d 9540 813e ed38 8dbd
000001f0: 98d3 953d 004a 323d 7f10 11be 5276 72be
00000200: bb5b c53d 590c aabd 3802 6cbe a24a df3c
00000210: 4bfe 18be ce3b c5be 7e62 09bd 0dff 933d
00000220: 1bea 79be 04cf d5bd 4516 463e ceb5 703e
00000230: 0c0f 47be 0417 6dbd 89d4 a43d a036 163d
00000240: 5427 003e 3a72 e13d 89d8 24be bdf8 3bbe
00000250: 91c4 e9bd 4e97 34be 4ffe fd3c cd15 c13d
00000260: 83a5 55bc 9b85 b6bd c116 ca3d 0cd3 093e
00000270: 0904 073e 4b3b 083e 92c1 cc3c 48d7 823b
00000280: 61f4 8c3d 3dec 583c e386 c63d 024c ee3d
00000290: 09d1 b93d b0e9 a0bd 4304 ae3d 93cd 5cbd
000002a0: 8646 84bc 7eab 083d ca89 e93d b384 84be
000002b0: 1224 7b3d bec2 0fbd 028d 17bd 370c 68be
000002c0: 71a3 6cbd 552f 1abe e2f4 a23d 6c11 a13d
000002d0: 4866 22be e1c8 cdbc ce9b 0f3d e6df 02bd
000002e0: 6e65 4fbe 04bc 25bd a006 f03c a4ed 163e
000002f0: c2a5 3bbd 723c 223e e852 9e3d 6c69 3cbd
00000300: c0e4 0d3d 732e db3d c2a5 ce3d f4d8 043e
00000310: 7b69 4a3d 9f59 433e a924 813c 1887 023a
00000320: 46a3 213e 81ca 223d 89bf 6fbd 7ab9 83bd
00000330: a1b5 fbbd 73e0 8cbe d4d7 33be 9cdd 8fbd
00000340: d2b7 1b3e 5692 b93d 9d52 ce3d 1575 ee3d
00000350: 9293 0bbd d148 f23d b005 fa3d 566e c5bc
00000360: 445a c1bd 0232 86bd 809a 0cbe c109 22be
00000370: 8952 1ebd 9f3d 16be fc33 63be 9fb2 113d
00000380: b46c 813d 45c1 093d 59ab 073e de90 0a3d
00000390: a8f5 0dbc ab7f e83d 4e24 a83d 1060 dd3d
000003a0: 6b12 3cbd af55 1abe c986 92bd 15ee 523d
000003b0: aa30 16be d198 84be aca7 54bd f4aa c4bc
000003c0: 08f5 0dbd c014 05be d484 373d bcd2 25be
000003d0: eeb6 803d 90f5 4d3d 31d5 e5bd e0ff eabd
000003e0: 6a25 0c3e 7dac 89bd aee8 b33d a637 31bc
000003f0: eb49 7bbb a7f4 193d 7d1b 8cbd be53 bb3d
-0.079305105 -0.28034043 -0.35144392 -0.22760113 0.07355668 -0.02521386 0.08993354 0.086069
0.2194686 0.0828799 0.17754717 0.15317272 0.18186013 0.00622533 0.10211749 -0.015962407
-0.18302242 0.0633176 0.10656983 0.0508366 -0.28789073 -0.10595079 -0.0742703 0.17375717
-0.15003061 -0.17871301 0.0766332 0.18415786 0.0033821352 -0.047473837 -0.07085685 0.10857789
-0.1623615 -0.038597994 -0.042378347 0.08055129 0.032839905 0.06344956 -0.016354859 -0.3251046
0.12272505 0.06070549 -0.0208393 -0.29220116 -0.08568852 0.13149095 0.26774856 0.052012153
0.15943083 0.1461393 -0.08687757 -0.26677293 0.24709305 -0.13193887 -0.4351511 -0.01974448
-0.09833036 -0.5417572 -0.12023509 0.16732267 -0.44690198 -0.0479645 0.13786909 0.19250092
0.00085422996 0.1735485 0.11600788 0.1301986 -0.02233497 -0.025904428 0.17038599 0.05539024
-0.20803358 -0.1934048 0.031920385 0.097049855 0.031958114 -0.2849652 -0.2411141 -0.077804886
0.031146353 0.122665286 0.08419655 -0.08214844 0.06347013 0.11343876 0.04178849 -0.19057111
-0.011388403 0.11081199 0.009305208 -0.21349631 0.1009231 0.016865073 0.068727605 -0.054562468
-0.11710008 -0.1384873 0.07286361 0.19232027 -0.111760035 -0.14187178 -0.012055352 0.25856134
-0.070079856 -0.44209278 -0.3380375 -0.017548684 0.25346243 0.061241765 -0.15774506 -0.08345029
-0.013180262 -0.041498967 -0.033235464 0.0593911 -0.15200138 0.005275416 0.14424452 0.1481711
0.010179006 0.071422845 0.25244585 -0.06895623 0.07315749 0.043527603 -0.14166449 -0.23677948
0.09636637 -0.083031364 -0.23047721 0.027257267 -0.14940755 -0.3852219 -0.033541195 0.072263815
-0.2440571 -0.10439876 0.19344433 0.23506853 -0.19439334 -0.057883278 0.0804835 0.03667319
0.12515002 0.11008115 -0.16098227 -0.18356605 -0.11414445 -0.17635843 0.031005053 0.09427986
-0.013039949 -0.08912202 0.09867621 0.13459414 0.13185133 0.13303868 0.024994645 0.0039929487
0.06882549 0.013239917 0.09693696 0.11635591 0.090730734 -0.07857072 0.084969066 -0.05390699
-0.01614691 0.033366673 0.11403234 -0.2588249 0.061313696 -0.03509783 -0.03699971 -0.2266091
-0.057773057 -0.15057118 0.07956864 0.07864651 -0.1585933 -0.0251202 0.035060696 -0.031951807
-0.20253536 -0.04046251 0.029300034 0.1473909 -0.045812376 0.1584337 0.07730657 -0.045998976
0.03464198 0.10702219 0.100902095 0.12973386 0.049417 0.19077156 0.015764551 0.0004979237
0.1578494 0.039743904 -0.05853227 -0.06431861 -0.12290502 -0.2751499 -0.175628 -0.070246905
0.1520684 0.090611145 0.10074351 0.116434254 -0.03407628 0.11830295 0.12208116 -0.024100464
-0.09441045 -0.06552507 -0.13730812 -0.15824033 -0.03865293 -0.14671944 -0.22187799 0.035570737
0.063195616 0.03363158 0.13248958 0.033829562 -0.008664526 0.11352476 0.082100496 0.10809338
-0.045916002 -0.15071748 -0.071546145 0.051496584 -0.14667001 -0.2589784 -0.051917717 -0.024007298
-0.034657508 -0.12996197 0.04480441 -0.1619367 0.06284891 0.050283015 -0.11222304 -0.114745855
0.13686147 -0.06722353 0.087846145 -0.01081649 -0.003834362 0.037586834 -0.068411805 0.09146832

sequential_2/conv2d_7/Conv2D f4 [56, 3, 3, 28]
00000000: acb0 ae3d ef2d 4ebc 444c ac3d 7c72 5c3d
00000010: ae7f c23c 086c 933d 5fe5 8d3e f810 a5bd
00000020: 7db6 5b3c bcb3 99bd d811 283d db20 ad3c
00000030: 3649 ba3c d2b6 c1bd 7534 8c3c 18d2 db3d
00000040: 1a92 e53d c6a2 3c3d e356 de3d fc4c 20bd
00000050: c9ab 293e 9aa6 d33d 6206 443d 323d 33be
00000060: c265 ae3d 3251 f2bc ca56 8cbd dc67 e33d
00000070: e6f3 67bd 8b8d babc 1975 a43d da93 b9bd
00000080: 3b27 2fbe 8d33 093c 3e76 033e 5137 b0bc
00000090: 2c98 18be f97c 13be b3a6 d33c e2bd c6bd
000000a0: e637 1abe 171b b7bd 2bca 1fbe 43d5 ec3d
000000b0: fbce 94bd bb19 dabd 6a5f 99bd 749d 583c
000000c0: 05a6 373d 385a 13bd 3d35 5dbd 4bc2 67be
000000d0: e7d1 fe3d 7b0e d4bd 5280 22bd a0e6 513e
000000e0: 131b 373d ecdc 1d3e 9948 79bd f86f 2c3d
000000f0: dd4a c9bd 9190 62be dab1 503d 714c 10be
00000100: aae3 723e ec83 8b3d 9b6a 19be e7b6 a13d
00000110: 9325 7bbe a71e 3dbe 80b0 acbd 295f 6cbd
00000120: e37c 9abc 773d e4bd 9665 5cbe a29b 393d
00000130: d8d2 12bd cd7c a5bd 23e1 72bc e25b 8bbe
00000140: b567 d2bd ba9c a6bd 4609 52bd 0710 7abd
00000150: 2f5c 98bd a119 353e b0aa 5fbd 1960 7b3e
00000160: b665 d5bc 9397 903d ee1b 4e3e bb79 743a
00000170: f282 b13e 9a0b b83c ab5b cebc 8f7c ec3d
00000180: 62d7 ca3c 2468 88bd 350a fdbc b33f cc3d
00000190: dde1 5c3d 65f4 023d bc84 023e 8867 303d
000001a0: 7e2d 0fbc 05e5 16bd 6e71 03be 5025 6cbe
000001b0: 048b ff3d c2bd 173e ecf8 423d d9a9 df3d
000001c0: 4de7 9fbd 4bca d7bc bcdf eebc ed4b b33d
000001d0: ec9a 0abe 7c07 363c 4fc8 283c 93fe 4bbd
000001e0: 0a60 69bc 0fde 46bd 7d15 a4bd 9755 6dbd
000001f0: e403 e6bd 27f9 02be 33d1 efbd 5ed7 df3d
00000200: c026 3e3d 8c24 9abd a63e fd3d 7e08 00be
00000210: dcfc b33d fc3b 503d dc8a 15be 9b56 35be
00000220: 3dab f73d fce4 1b3e 6dd0 49be 32a2 0c3e
00000230: d1c7 95bd 23f6 483e b79a 0fbe 8822 26bb
00000240: ffa2 46bd c9a6 6cbd 3d63 5b3d 7920 ecbd
00000250: 8aaf e23d 64dc 9dbc 9d8d 30be f4f8 7b3d
00000260: 589d 8dbe 2518 87be a8c7 4b3c a088 3a3d
00000270: e19e 68bd 1f7b 0ebe 9134 21be 7c96 6c3d
00000280: d9d9 343c 9902 67bd b838 b3bd 9650 51be
00000290: 05a3 293d f570 0cbb 6215 17be 1172 48bd
000002a0: c022 bfbd b8e3 f63c 1916 e73c a364 563e
000002b0: 30ed 5abd c6c0 053e 1632 0f3e a5cf 70bb
000002c0: e451 2c3e 57cc 0cbd 36b8 0fbd e959 083e
000002d0: f872 123d dfd4 073d bc54 343d 8b31 803d
000002e0: 4615 c03d 3820 bdbd 071d ce3d a0ff 2fbe
000002f0: 4369 233e 6eab b9bc cc24 1abe 25e5 a6bd
00000300: 9424 153e d654 a33d 9e59 fbbc 17f8 fb3c
00000310: f972 a23d c02b 0ebc d84d 75bc 11f5 023d
00000320: 7c73 40be 41ce a73d 29e7 c2bc a787 16bd
00000330: fac7 f2bd 2f82 c63a c248 93bd 02a3 abbc
00000340: 6ff4 d1bd 69f9 5fbd d7ae 8abd ac16 05bd
00000350: 55b0 e33d 4992 dfbd e21e 833d a784 c93c
00000360: fc60 0e3d db82 c9bb 1ab7 42be 2323 0ebe
00000370: 30ea 373d 9c9c 0b3e 05b7 13be dfe4 a43d
00000380: 95a2 003e 6b76 653e f34c b33d 3cab ac3d
00000390: 5f50 3fbd 1635 36bd 7e76 09bd 656e a2bd
000003a0: 917a 0c3e c73d ed3c 30d4 7abd d271 b63d
000003b0: 9e98 2abe 4240 46be b256 bbbd 239d 9b3d
000003c0: 62a5 84bd 0ac5 85be 2369 0dbe fad7 ac3d
000003d0: b9d5 f83c e3cf c53d ac4a 26be e460 7bbe
000003e0: bce0 d43c 015a 46bd 8c7d f0bd 07ac 233d
000003f0: fba1 0bbc acde c43c 4015 96bd b836 093d
0.08529791 -0.012584194 0.08412984 0.05382012 0.023742523 0.0719834 0.2771406 -0.08059877
0.013410208 -0.07504985 0.041032642 0.02113383 0.022739988 -0.09458698 0.017114857 0.107334316
0.11209507 0.04605367 0.10856416 -0.039135918 0.16569437 0.10334511 0.04785765 -0.17503813
0.085155025 -0.029579733 -0.06852491 0.11103794 -0.056629084 -0.022772571 0.08030147 -0.090614036
-0.17104809 0.008374107 0.12838075 -0.021510752 -0.14901799 -0.14403142 0.025836324 -0.09704186
-0.15060386 -0.08940714 -0.15604465 0.11564114 -0.07266041 -0.10649439 -0.07488902 0.0132211335
0.044836063 -0.03597471 -0.05400585 -0.2263271 0.124423794 -0.103543244 -0.039673157 0.20498133
0.044703554 0.15416306 -0.06086025 0.04209897 -0.09828732 -0.2212546 0.050950862 -0.1409166
0.2371966 0.068122715 -0.14982073 0.07896214 -0.24526052 -0.18468724 -0.08432102 -0.05770794
-0.018858379 -0.11144536 -0.21523127 0.04531444 -0.035845608 -0.080804445 -0.014824185 -0.2721854
-0.10273687 -0.08135362 -0.051278375 -0.06105044 -0.074394576 0.17685558 -0.05460614 0.24548377
-0.026049476 0.070601605 0.20127842 0.00093260006 0.34670216 0.02246647 -0.025190195 0.11547195
0.024760906 -0.06660488 -0.030888656 0.09973087 0.053926338 0.031971354 0.12745947 0.043067485
-0.0087388735 -0.036839504 -0.12836239 -0.23061109 0.12477687 0.1481848 0.04760067 0.10921068
-0.07807789 -0.026341578 -0.02915942 0.08754716 -0.1353566 0.011110183 0.010301664 -0.049803328
-0.014244089 -0.048551615 -0.08011911 -0.057942953 -0.11231211 -0.12790357 -0.117098235 0.1092975
0.046423674 -0.07526502 0.12365465 -0.1250324 0.087884635 0.050838456 -0.14603752 -0.17708819
0.12093208 0.1522407 -0.19708414 0.13733748 -0.073135026 0.19625144 -0.14023863 -0.0025350172
-0.04849529 -0.057776246 0.053561438 -0.11529631 0.11068638 -0.01927013 -0.17241521 0.061516717
-0.27659106 -0.26385608 0.0124377385 0.045540452 -0.056792144 -0.13914154 -0.15742709 0.0577607
0.011038267 -0.05639896 -0.087510526 -0.20440897 0.041415233 -0.0021429632 -0.1475425 -0.048936907
-0.093328 0.030137882 0.02820878 0.20936827 -0.053448856 0.13061818 0.1398395 -0.003674486
0.16828114 -0.03437456 -0.035087787 0.13315548 0.035754174 0.033161994 0.04402612 0.062594496
0.093790576 -0.09234661 0.1006413 -0.17187357 0.15958123 -0.022664752 -0.150531 -0.081491746
0.14564735 0.079751655 -0.030682381 0.030757947 0.079320855 -0.008677423 -0.014972173 0.031971995
-0.18794054 0.08193637 -0.023791866 -0.036750462 -0.11854549 0.0015144999 -0.07191612 -0.020951752
-0.102517 -0.054681215 -0.06771629 -0.032492325 0.11117617 -0.109165736 0.06402375 0.024599386
0.03476046 -0.0061496324 -0.1901516 -0.13880591 0.044901073 0.1363396 -0.14425285 0.08051466
0.1256202 0.22408454 0.08754911 0.08431098 -0.046707507 -0.04448422 -0.03356027 -0.07931212
0.1371863 0.028960122 -0.061237514 0.08908428 -0.16659781 -0.1936045 -0.09147395 0.07598331
-0.06476857 -0.2612689 -0.13809638 0.08439632 0.030375348 0.09658792 -0.16239423 -0.2454868
0.025986068 -0.04842568 -0.11742696 0.03995898 -0.008522506 0.02403196 -0.07328272 0.03349945

sequential_2/conv2d_8/Conv2D f4 [56, 3, 3, 56]
00000000: c412 23bd da77 133e eebe 0b3e 9aac edbc
00000010: e2aa 3b3d 6799 c43d 2616 333d b5dd 543a
00000020: b948 d1bd 6543 52be 3269 ff3c c690 89be
00000030: bb23 edbd 527e 6cbe 52ea 5d3c df48 5a3d
00000040: 3040 fbbc 8794 b5bc 31b0 823d 8dda 893d
00000050: 31fa 683d 4431 c1bc 0ff3 f93d 22b9 e4bc
00000060: a30f 8bbd 81fc 58be ece5 bb3d a197 a33d
00000070: 83e1 a6bc 78c2 49be c15a b0b9 df9d 5fbd
00000080: 1df1 c5bc 918f dabd f6e6 acbd 3d12 3fbe
00000090: 25c7 fb3c 251d 03be aa56 30be 2c07 d43c
000000a0: 942d b53c 2ada cdbd 3574 a23b a5fc 253e
000000b0: 963d 61bd 24a5 2fbd 6c79 2abe cc28 8c3d
000000c0: a2b2 8e3d d98f 60bc ea3c 76bd a03a 813c
000000d0: 95ff 503c 9d0a 3b3d d60c e9bd 685a 8cbe
000000e0: 55ee 8d3d f962 f73c c56c 233e f579 08bd
000000f0: 4f01 2b3d c1ba 76bc 9a59 ad3d e62f 543d
00000100: 10f8 f33c 6830 9dbc 51ed f93c a868 b53d
00000110: ed00 02bd 7b6f fe3c d3ec 55bd d03f 87bd
00000120: aefa 8b3d 0984 3c3d 3d02 633d df83 c0bd
00000130: 6f65 d4ba bfb4 1fbe 5230 c3bd 7c5e 803d
00000140: 8173 36bc a6ab 9bbd ef3f 15bd a8ea 8e3d
00000150: 07e6 b53d b9e4 903d e93c ac3b 64bb e5bd
00000160: 2285 ebbc 0d6a 113c de2e b7bd bfb1 c4bc
00000170: 64de 76bd 1fd2 febc 2a95 673d b624 6a3c
00000180: 6cf2 b7bd 306d f53d 8bc2 dbbd 7eae 85bd
00000190: 3cfe 98bd 9f76 e73d f5d2 8f3c d512 413d
000001a0: 5278 b5bd 0e91 bbbd 64a3 22bd 3dc1 1cbd
000001b0: b656 4f3d 473e 683d d189 58bd 2d07 4cbd
000001c0: ad28 b0bd 78ec df3d bf19 41be 1a56 07be
000001d0: 9d46 10be 077f fb3b 8dcc 6dbc c57b 953c
000001e0: b927 dc3d 6b1a e53d 155c fc3c 3a10 633d
000001f0: 2d30 f8bc 0b88 dbbd 83de 03be 3187 6abd
00000200: 11db ba3d 9726 a1bd 6ef2 cc3d 902b c2bd
00000210: a12e 17bc edc0 93be fba1 45be 96e0 71be
00000220: 304e ddbd e0cd 89bd ab03 c5bd 11f6 2cbe
00000230: de2b 01bd 687e 3bbc 4605 f7bd 11f3 d3bd
00000240: 8732 383d 4782 4fbd 31cd a8bd ff28 07be
00000250: be27 86bd 5acf c03c 0f02 183e 4df6 a43d
00000260: 9a9c 373e d0a9 0a3e 4e9c a3bd 0f87 73be
00000270: 584c bbbd 3dca af3a 183b 30bd 525e 6b3d
00000280: ceb2 ccbc b806 5bbd eb9c 80be 89a1 c33d
00000290: 13ba 32bd c021 53be 17c0 89bd dda5 173d
000002a0: 642f a7bc 7d3f f73c 4f67 103e 416c c8bc
000002b0: abb5 013e 90dc f3bc ab0c 70bd 3680 003d
000002c0: 0bad dfbd 018e ffbd 4c33 ecbc 9834 0bbe
000002d0: 52ea 2abe e16c ffbd 1fd8 8cbd d2ae f7bb
000002e0: dd67 143d 13a1 acba 70f7 44bd 539e 893c
000002f0: a67b 133d b368 08bd c1e4 033d e022 73bd
00000300: 3116 733c 5588 023d de04 b4bd b32e c7bc
00000310: a481 a73d 91c3 363c ed80 7f3d b454 a7bc
00000320: 438f cabc 72b9 263d 2a12 043d 7b64 11be
00000330: a67d 013d ac6c 30be 4a26 49be 2bf1 7fbc
00000340: 36a6 ac39 99d6 0e3c adcf 943c b7a4 9e3d
00000350: 2afa 8fbd b662 d9bd ee3e 143d c611 873d
00000360: 472e 323e f6ae 99bd a67a 1dbd 7f84 a3bd
00000370: 2f37 c6bc f548 513d ee8d 223d c93d 81be
00000380: 6e20 843d 11a4 043e 2c7b 753d cfee aabd
00000390: 9605 d0bd 3dac 39bd 76be 9fbd 27e1 f4bd
000003a0: 8a9b 15bd 6be2 67bd df20 82bd 6e62 853d
000003b0: 7dac debd fb82 c3bd a003 153d 259a 41bd
000003c0: 1260 75bd ff6f 203b 73c9 213d a893 b73b
000003d0: 3f5b 003d a641 64bd de72 db3d b997 333d
000003e0: cc30 ca3c 9ed8 0ebe 2eed 00bc e521 e9bd
000003f0: d965 883c 8d98 abbc 2eed 42ba ff9d a8bd
-0.03981282 0.14401188 0.13647053 -0.029012967 0.045817263 0.09599572 0.043722294 0.0008120195
-0.10218949 -0.20533521 0.03117809 -0.26868266 -0.11579081 -0.23095062 0.013544636 0.05329215
-0.030670255 -0.02216555 0.06381262 0.067311384 0.056879226 -0.023583062 0.12204563 -0.02792031
-0.06790092 -0.21190073 0.091747135 0.07987905 -0.020371204 -0.1970309 -0.00033636953 -0.054593917
-0.024162823 -0.10671914 -0.0844249 -0.18659301 0.030734608 -0.12804087 -0.1722056 0.025882326
0.02211646 -0.10051377 0.0049577006 0.16209657 -0.054990374 -0.0428821 -0.16647881 0.06843719
0.06967665 -0.013706171 -0.060116686 0.015775025 0.012756248 0.04566442 -0.113794014 -0.27412724
0.06930224 0.030198561 0.15959461 -0.033319432 0.041749295 -0.015059174 0.08464356 0.051803492
0.029781371 -0.019188121 0.03050867 0.08857852 -0.031739164 0.031059017 -0.052227806 -0.06603968
0.06834923 0.046024356 0.055422056 -0.094001524 -0.0016204546 -0.15596293 -0.09530701 0.062680215
-0.011135937 -0.07601099 -0.036437925 0.06978351 0.08881765 0.070748754 0.0052562845 -0.112173826
-0.028750006 0.008875382 -0.08944486 -0.024010537 -0.060270682 -0.031106053 0.05653874 0.014290979
-0.08981785 0.119837165 -0.107304655 -0.06527422 -0.07470366 0.11301922 0.017556647 0.0471371
-0.0886084 -0.09158526 -0.039706603 -0.038270224 0.050619803 0.056700017 -0.052865807 -0.04981153
-0.08601508 0.10933775 -0.18857478 -0.13216439 -0.14089437 0.007675055 -0.014514101 0.018247494
0.10749764 0.111866795 0.030805627 0.055435397 -0.03029641 -0.107193075 -0.1287785 -0.057257835
0.09123815 -0.078686886 0.10007177 -0.09480965 -0.009227426 -0.28858128 -0.19300072 -0.23620829
-0.10805929 -0.06728721 -0.0961984 -0.16890742 -0.031535976 -0.011443712 -0.12061553 -0.103490956
0.04497006 -0.05066135 -0.08242262 -0.13199233 -0.06550549 0.023536373 0.14844535 0.08054791
0.17930833 0.13541341 -0.07988797 -0.2378199 -0.09145421 0.0013411712 -0.043025106 0.057462998
-0.024987604 -0.053473204 -0.2511972 0.09552295 -0.043634485 -0.20618343 -0.06726091 0.037023414
-0.02040834 0.03018164 0.14101909 -0.024465682 0.12666957 -0.029768258 -0.05860583 0.03137227
-0.10921677 -0.12478257 -0.028833054 -0.13594282 -0.16690949 -0.12471939 -0.06877159 -0.007558682
0.036231864 -0.0013170562 -0.048087537 0.016799128 0.036006592 -0.033302974 0.03220058 -0.05935943
0.014836834 0.031868298 -0.08789991 -0.02431426 0.08179024 0.011155025 0.062378813 -0.020426132
-0.024726516 0.0407042 0.032243885 -0.14198487 0.03161397 -0.17228955 -0.19643512 -0.015621464
0.00032930233 0.008718156 0.018165434 0.077462606 -0.07030137 -0.10614531 0.036192827 0.06595187
0.17400466 -0.07504074 -0.038447045 -0.07984256 -0.024196235 0.051094968 0.039686136 -0.2524245
0.06451498 0.12953211 0.05993192 -0.083463304 -0.101573154 -0.045330275 -0.077999994 -0.11957007
-0.036525287 -0.056612413 -0.06353926 0.065129146 -0.10872743 -0.09546467 0.03638041 -0.047266144
-0.059906073 0.0024480817 0.039498758 0.005602319 0.03133702 -0.05572667 0.107152686 0.043845866
0.024681471 -0.1394982 -0.007869048 -0.11383418 0.016650127 -0.020946765 -0.0007435855 -0.0823326

sequential_2/dense_5/BiasAdd/ReadVariableOp f4 [10]
00000000: 150b 093d 2c34 6d3d 83a0 2d38 d7c9 913c
00000010: bd48 a5bb f226 773c 1028 80bd 5d1e 28bd
00000020: 2e0a 173d c55d 6ebd
0.033457834 0.057911083 4.1395902e-05 0.01779644 -0.0050440715 0.015084969 -0.06257641 -0.04104458
0.036874942 -0.058194894

sequential_2/dense_4/BiasAdd/ReadVariableOp f4 [112]
00000000: 6943 f3ba 3b91 dabb a85b 9ebc 52aa 87bc
00000010: b5b6 26bd 803c a13a e1cc 023c cdd8 0bbd
00000020: 98b9 81bd 3737 073d 2080 08bd 5eb7 a1bc
00000030: 6338 063d 1e66 01bd da13 d5ba e30f 96bc
00000040: fb93 fcbb e03e e93b c4fa 943b 667f e5bc
00000050: 3068 b63c ab83 963c 0970 053c 8025 9bbc
00000060: 94ca c1bb 9378 8fbd 5365 36bd 850c 163b
00000070: d0a7 3d3d d272 0bba 8018 d5bb 0ffa 1ebd
00000080: 856f a1bc c026 b23c 2830 f3bc c1c8 3c3c
00000090: 7575 d5bc 885a 213d 6f3d 99bc 8a6e 11bc
000000a0: 91d1 26bc 1c83 f7bc 6588 983a 8d7e d7bb
000000b0: f1c9 a63b 4335 7d3c 9ca9 e2bc 949f bbbc
000000c0: 1088 f93c 759c bebb 2105 483c f9cb 2bbd
000000d0: 2ea3 c13c 581e 0cbd 5450 83bc 2904 78bc
000000e0: bb0e debc 688a 14bd 4a4e dfbc 3bbf 39bd
000000f0: 2d99 1e3d 1ffc 5cbc 0151 bdbc 27ac f4bb
00000100: a74f 873c dfe6 d1bc d6eb 89bb 377b b7bc
00000110: d2cc 21bd 5ac6 2fbc f158 783c 9cdc 83bb
00000120: 2721 893c 8d13 923c 7779 153d f37c 103d
00000130: 3070 cabc 4963 d3bc 8233 adbb 191e 89bc
00000140: caff d03c 866b b03b 4acf 34bd 0e5f 0fbc
00000150: 4d98 28bd 3659 0abd 9fc6 3cbd f46c 84bd
00000160: 3639 c43b 9a27 b4bc a35f ebbc 45a5 efbc
00000170: a7c0 11bc 895c 9cbc ea1d 54bc 479a d8bc
00000180: b232 d6bc 3468 103d b2c8 9dbb 3642 77bd
00000190: be59 a2bc 5134 4f3c aa95 09bd fe7e 203d
000001a0: cd5f abbb d314 c9bc deb2 c839 95dd 11bc
000001b0: 42ac 223d 0284 92bc 08f6 95bc 84f6 ddbb
-0.0018559519 -0.006670145 -0.019330814 -0.016560707 -0.040701587 0.0012301356 0.007983417 -0.034142304
-0.06334227 0.03301164 -0.033325315 -0.019740757 0.03276862 -0.031591527 -0.0016256527 -0.018318122
-0.0077080703 0.007118091 0.004546495 -0.02801485 0.022266477 0.018373331 0.008144387 -0.01893878
-0.005914042 -0.070054196 -0.044530224 0.0022895646 0.046302617 -0.0005319539 -0.006503165 -0.038812693
-0.019706497 0.021746993 -0.029686049 0.011522473 -0.026056984 0.039392978 -0.018706052 -0.008876452
-0.0101818 -0.030213885 0.0011637328 -0.0065763653 0.0050899913 0.015454593 -0.027668767 -0.022903241
0.030460387 -0.005816991 0.012208254 -0.04194257 0.02363738 -0.034208626 -0.016029514 -0.015137711
-0.027106633 -0.036264807 -0.02725901 -0.045348387 0.0387203 -0.013487845 -0.023109915 -0.007466811
0.016517473 -0.025622783 -0.004209022 -0.02239762 -0.039501972 -0.010728443 0.015157924 -0.0040241014
0.016739441 0.017831588 0.03649279 0.03527541 -0.024711698 -0.025804179 -0.005285681 -0.016737984
0.025512595 0.0053839115 -0.044143 -0.00875069 -0.04116087 -0.033776484 -0.046087857 -0.06466094
0.0059882654 -0.02199154 -0.028732127 -0.029253611 -0.00889603 -0.019087093 -0.012946585 -0.026440753
-0.02614722 0.035255626 -0.0048151845 -0.060365878 -0.019818183 0.012646751 -0.033589996 0.03918361
-0.005229926 -0.024546063 0.0003828024 -0.008902927 0.03971506 -0.017885212 -0.018305793 -0.0067737717

sequential_2/dense_4/MatMul f4 [112, 1400]
00000000: 159c 293d 195f b83c e892 96bd 401a abbd
00000010: 936c 933d 9103 4d3d 34b9 35bd 692d 283d
00000020: ccea e43c f394 86bd c544 7cbd b444 f7bc
00000030: 88b7 443c c70d c1bd 5be7 abbd f564 803c
00000040: c933 703c baa8 efbc 5200 553d f198 27bc
00000050: 4aea 20bd d813 5ebc 538c be3c 7480 803c
00000060: 1ca4 763d 7663 8239 eb40 e8bc 8276 0ebc
00000070: fe4f 7dbd 7532 233c 9abd 27bd 4e2d d7bd
00000080: 1e47 88bd 5084 55bd 8bcb 85bd 1c5b c1bd
00000090: edbf d73a fd33 b0bd 60f9 6ebb 1cdf 8cbd
000000a0: cbef 863a 5a3e f1bb b7a1 85bd 6031 09bc
000000b0: 0cbb e0bd ea7b babc 8ff1 ccbd bd99 89bd
000000c0: 5279 ae3d 0394 62bd 8517 1abd 0833 b4bb
000000d0: afbf 4b3d 7e4c 95bc 8d5b 0d3c 7df1 72bd
000000e0: dcb2 cebc 2c25 b73a dbf2 113d 9eca ecbc
000000f0: 3450 b3bc 8e1f 533c f7b9 d3bc 2c4f 8abd
00000100: 6812 443c 6887 29bd 6646 843d 08bb a9bd
00000110: 4366 1ebd 833e 47bb b527 25bd 8259 edbc
00000120: 2599 d6bc 34c1 2a3c 543a 98bd 1f79 5cbd
00000130: 8def 94bc 96be 10bd 7e55 c4bd 792b 5ebd
00000140: 45cd 913c a4d3 20be 6a20 a9bc 9140 cdbc
00000150: 3491 1dbd 7ac8 b5bc 8a65 44bd 8200 2ebd
00000160: 41ef 14bd db9f 063d 860f 193b d4be 8bbd
00000170: 55ed 81bd b060 3b3d 7f56 b6bd 9934 01be
00000180: e3ce 6ebd 0d78 8dbc ff79 353d 76a2 72bd
00000190: cb12 9cbd c91b 89bd d9b9 b5bd 8017 1abd
000001a0: 3687 ff3c 0f90 0f3d 1d7b 6b3d 3dce 89bd
000001b0: 0b9d 233d 334d 57bc 7909 a2bb 062b b73d
000001c0: def6 4bbd c0a5 d2bc 7db6 bcbc b4bf 9abd
000001d0: 37d9 063d f79c 043c 33f7 6d3d 4c9f 7cbd
000001e0: 9f00 d3bd f0e4 6b3d b695 c33b 1f57 b53c
000001f0: dc5c 82bb a582 7f3c 4045 273d ff6c 02bd
00000200: 88e7 18bd 4068 16bd 64ee 373c b3cc 933d
00000210: 243e e6bb 01fd b13c 9869 01bd 8d99 bb3c
00000220: bad5 d6bd 6350 b9bd 496a d63c 280a 823c
00000230: 9516 eb3c 34d8 35bc 8cda 07be 210d debd
00000240: 916e 553d 74f3 99bd ef72 8abc f149 f139
00000250: 0d58 1a3d 0c8d 72bd bc2d 98bd 28b3 0ebd
00000260: ab93 4abd 3603 68bd ce33 44bd db31 42bd
00000270: 7f96 533c 4394 cdbd 389b e6bc c78f 49bc
00000280: babe 82bd 3c7a 02be 33d4 8abc a522 eebc
00000290: 188f 0cbd dbc9 13bd faec 653d 35fb 7dbc
000002a0: 5cd5 80bd 02c5 2ebd 4664 edbc 3a2e debd
000002b0: 3c5e 01bd aa64 85bc fe16 90bd 7ca9 8fbd
000002c0: c978 18bc d145 0f3d 2c67 cdba 7c14 33bd
000002d0: a87a 483c 92dd 443d 2914 3ebc ce13 38bd
000002e0: 3139 7cbc 40ed 06bd 2c68 1dbc 5cf0 3abd
000002f0: 0bd0 58bd e2e0 d43d d7f2 ab3d da24 643d
00000300: 4153 d3bc 6e54 c2bd 1131 01bd 9860 5e3d
00000310: 7494 9cbc adbe c6bd eb59 1f3d 91f8 03bc
00000320: 03ba 56bb a82d 43bb 7159 f53c 8b40 c5bd
00000330: bc5a 28bc 2579 34bd 9943 14bd 6788 03be
00000340: 4db8 fdbc 9677 60bb 0169 d23a c7af 35bd
00000350: 5d55 25bd 0df0 58bc 8387 6c3d c695 c23b
00000360: 8000 a5bc 6a7d 98bd 81b9 82bd fd4c b63c
00000370: 18ce 5fbd b41b ef3c 3bdb b63a ddc9 513b
00000380: 38e2 0c3d 1996 57bd 3ee3 873a 6441 c0bc
00000390: 3cad 96bd f485 493d e256 21bc 87c7 9f3c
000003a0: feca d0bc 4a9e 733d 5414 11bd 7cdb 55bd
000003b0: 4383 16bd 0dec 223d 8aff adbc 6d2a e9bc
000003c0: 8bd0 bfbd 4a55 e4bc 16c5 25bc bd3f d8bc
000003d0: f4a5 02bd bafc e13c 08b8 cbba 9de2 243d
000003e0: e203 82bc f576 b7bd c3b0 00bd 4970 cdbd
000003f0: a27e bcbd ecb9 62bc 20d1 00be 1785 09bd
0.041408617 0.022506284 -0.07352239 -0.08354616 0.07198443 0.05005223 -0.044366077 0.04105893
0.027943991 -0.065713786 -0.06158902 -0.030184127 0.012006648 -0.09426456 -0.08393737 0.01567314
0.014660784 -0.02925526 0.05200226 -0.010229335 -0.039285935 -0.013554536 0.023260271 0.015686251
0.0602151 0.00024869636 -0.028351268 -0.008695247 -0.061843865 0.00996076 -0.040952303 -0.10506688
-0.066541895 -0.052128136 -0.06532963 -0.09441206 0.0016460397 -0.08603666 -0.0036464557 -0.06878492
0.0010294853 -0.007362169 -0.06524985 -0.008373588 -0.10973176 -0.022764165 -0.10007011 -0.067187764
0.08519234 -0.055316936 -0.037620086 -0.0054992475 0.04974335 -0.01822495 0.008627784 -0.059312332
-0.025231771 0.001397287 0.035631996 -0.02890521 -0.02188883 0.012885941 -0.02584551 -0.06753382
0.011967279 -0.0413889 0.0645874 -0.082876265 -0.038671743 -0.003040225 -0.04032107 -0.028973345
-0.026196072 0.01042204 -0.07433 -0.053826448 -0.018180633 -0.035338007 -0.09586619 -0.054240678
0.017798075 -0.15705734 -0.020645339 -0.025055202 -0.038468555 -0.022190321 -0.047948398 -0.042480953
-0.036360983 0.032867294 0.00233552 -0.06823507 -0.063440956 0.045746505 -0.089032166 -0.1261772
-0.05830277 -0.017269159 0.044305798 -0.059236966 -0.07620772 -0.06694753 -0.08873338 -0.037620068
0.031192403 0.035049494 0.057490457 -0.0672879 0.03994469 -0.013140964 -0.004944977 0.08943753
-0.049795978 -0.025713801 -0.023036236 -0.07556096 0.032921996 0.008094064 0.058097076 -0.061675355
-0.10302853 0.05759138 0.0059687747 0.02213627 -0.003978355 0.015595113 0.040837526 -0.031842228
-0.03733018 -0.036720514 0.01122627 0.07216778 -0.0070264507 0.021727087 -0.031594843 0.022900367
-0.10489984 -0.09048536 0.026173728 0.015873984 0.028697291 -0.01109891 -0.13266963 -0.10842348
0.052107397 -0.07517138 -0.016900508 0.00046022193 0.037681628 -0.059216544 -0.07430598 -0.034838825
-0.049457233 -0.056643687 -0.047900967 -0.047410827 0.012914299 -0.10038044 -0.028150186 -0.012302346
-0.063840345 -0.12741941 -0.016946888 -0.029069254 -0.034316152 -0.036081176 0.0561342 -0.015501787
-0.06290695 -0.04266835 -0.028978478 -0.10848661 -0.03158401 -0.016283352 -0.070356354 -0.070147485
-0.009306141 0.03497869 -0.0015671006 -0.043720707 0.012236275 0.04806287 -0.011601486 -0.044940762
-0.015394495 -0.032941103 -0.009607356 -0.04563938 -0.05293278 0.103944555 0.083959274 0.055699207
-0.025796534 -0.0948876 -0.031540934 0.054291338 -0.019113757 -0.09704337 0.03890411 -0.008054868
-0.003276468 -0.0029781852 0.029949876 -0.09631451 -0.010275539 -0.044060845 -0.03619728 -0.12845002
-0.03097167 -0.0034250966 0.0016053022 -0.044357087 -0.040364612 -0.013240826 0.05774642 0.0059382645
-0.02014184 -0.07445796 -0.06383038 0.022253508 -0.054639906 0.029188015 0.0013950834 0.003201119
0.034395427 -0.05263338 0.0010367406 -0.02346868 -0.073572606 0.049200013 -0.009847375 0.019504322
-0.02548742 0.059477128 -0.035419777 -0.05221127 -0.036746275 0.039775897 -0.021240015 -0.028462613
-0.09365948 -0.0278727 -0.01011779 -0.02639758 -0.031896546 0.02758633 -0.0015542516 0.040255178
-0.015870992 -0.08958236 -0.031418573 -0.10031182 -0.09203841 -0.013838273 -0.12579775 -0.03357419

sequential_2/dense_5/MatMul f4 [10, 112]
00000000: 328a 74be ba88 4c3e 85c0 a6bd 7d68 a8bd
00000010: 20fd 61be 5693 92be 373d 53be 5d85 16be
00000020: 9f04 52bd 398d 283e 78c3 64be 4781 023e
00000030: 08f4 ed3d 74ad 90bd 0ef7 093e 46ec 2d3e
00000040: 2d29 193e f90f 11be 3582 1bbe a3ff 32be
00000050: d6f8 4fbe bf59 71be a375 8cbe 4aff 8abe
00000060: d91c 213d 4410 89be 2765 aebb 34b9 91be
00000070: bc87 57bc f04c 24be 524a 903d 66ba 20be
00000080: 9908 84bc 577a 44be c72f 4b3e dd3c 843d
00000090: a449 5abe b1d4 27be b5ea 003e b1bf 4e3e
000000a0: 09df 8dbd 91de 87bd bf57 2fbe 053d 813e
000000b0: c5aa 0abe ecb3 0abe 86cf 3bbe 0d46 b03d
000000c0: f0e9 33be 95d5 173e a730 2c3e 1126 9dbd
000000d0: 2fab 82be 0fbd 643e 33ed 4e3e 3287 02be
000000e0: 54a8 013e 7e89 76be 4689 07be be12 d0bb
000000f0: 7918 2e3e 502f 273e eef3 1c3e 8d74 ccbd
00000100: f52c a5bb ccdf 2d3e d402 b7be 7454 253e
00000110: eff3 883d d2ce 4b3e a189 f13d 6628 6fbe
00000120: 034f 053e 14f6 c7bd c075 8dbd b8fe 583e
00000130: ef99 fcba 571a e9bd 7cb3 07be 3a6e 67be
00000140: 0f3d 6cbe 83b9 1a3e 9869 13be 6b0e ddbe
00000150: 60ed d6bc 9060 b23c 2d42 97be 4485 17bd
00000160: 9644 29be 3684 16be b351 0cbe f103 35be
00000170: 89be 33be c9cd 9b3c 48f1 2cbe 2721 163e
00000180: 3f82 b5be 7feb 043e 75b2 5cbe 0c34 6bbe
00000190: c2cf 873c 0c2c 50be 20cb 24be 53ab 82be
000001a0: 798f 2d3e ff63 35be 987a 86be 0f30 8fbd
000001b0: 5e33 303e de1d d53d a579 ebbd 476f c0bd
000001c0: 7d71 833d 702e ecbd 2372 573d d839 5fbe
000001d0: f8a9 0c3e 7ea3 9e3d 5e3d bd3d b7ee 9fbb
000001e0: 5f02 efbd c6c6 0b3e 0ec8 0f3d 7252 49bc
000001f0: 93fe c2bd 71f6 03be 3a41 8abe c389 1fbe
00000200: 7773 05be fce4 563e 1230 233e 2d17 0abe
00000210: e379 493e 699a fb3d 2c51 86bc 9bca 1abe
00000220: c1e8 7cbd d26a b83d cefd 3bbe e320 363e
00000230: 16e1 493e 6537 1f3e f823 423e 6b5a afbd
00000240: d828 66be a2b3 493e 4d24 8cbe 062a bf3d
00000250: 6088 493d 1788 463e a1ed 43bc 4d6e 33be
00000260: 9ec8 0f3e 4879 21be 30ee 593e c28f 27be
00000270: 6225 d63d 5296 203e 2128 c4bc 7bdf 23be
00000280: 3dc5 3f3e c39e 44be 763e 933d 1c87 32be
00000290: ff7f 5c3e 8b83 84be 30c9 30be ff74 88be
000002a0: 4753 d2bd 3269 93be 128a fbbc 2311 36be
000002b0: 02a6 b53d d14c 40be 99ce 1abe 7367 31be
000002c0: e373 3bbd fe87 b1be 9e6b 0b3e ed0c 973d
000002d0: 1678 dbbd 9113 5ebe f76b 2e3e 35e3 7b3e
000002e0: b1aa 94be 5637 513e c893 4c3e 33ab 853e
000002f0: c885 413c 578b 06be 3658 563e b619 41bd
00000300: 3b3f 493e 5fae b03d 1c6d 3bbe 8a74 38be
00000310: 736f 0abe 410b d03d 3376 b63d dc51 12be
00000320: 633e ce3d a596 94be 19cc acbd 2954 19be
00000330: 6acd dcbd eb50 6dbe 9c55 053c 641f a7be
00000340: c9b5 463e 451f 033e 5e14 64be ebc8 11be
00000350: 2bae b0bc 5f14 cc3d 7b74 22be 07c0 473e
00000360: b0cc c5bb aee7 99be bdc3 87bc f05c 87bc
00000370: d5e3 fa3d 4bb0 e8bd 054e 92be 73a7 29bd
00000380: e003 a43d f56e 81bd d838 91bd 41f7 373e
00000390: 001d 82bb b055 06be 1fe4 10be 216c 2c3e
000003a0: 33ee 78bc 3d76 91be a41a 80be 9864 b1bc
000003b0: cedf 5abe bebe 583d 28a8 42be d296 9b3d
000003c0: 6d22 043e 758e f2bd a0bd 41bd a36e ad3d
000003d0: dbea 82bd bfb6 06be 1c6e 3ebe 860a 63bd
000003e0: e201 fc3d ba05 0b3b 37a5 b03d 9bf9 4abe
000003f0: 1e2d 17be 1da7 b53d 0313 51be 9cad 5fbd
-0.23880842 0.19974032 -0.08142189 -0.082230546 -0.22069216 -0.28628033 -0.2062882 -0.14699312
-0.05127394 0.16460122 -0.2234019 0.12744628 0.11618811 -0.070643336 0.1347315 0.16984662
0.14957114 -0.1416625 -0.15186389 -0.1748033 -0.20309767 -0.23569392 -0.274335 -0.27147895
0.039334152 -0.26770222 -0.005322117 -0.2846161 -0.01315492 -0.16044974 0.070454255 -0.15696105
-0.016117381 -0.19187294 0.19842444 0.06456921 -0.21317154 -0.16389729 0.12589534 0.20190312
-0.06927306 -0.06634248 -0.17123316 0.25241867 -0.13541706 -0.13545197 -0.18340883 0.08607111
-0.17569709 0.14827569 0.16815434 -0.07673276 -0.25521228 0.22337745 0.20207672 -0.12746885
0.12661868 -0.24075887 -0.1323596 -0.0063498905 0.17001523 0.16326642 0.15327427 -0.09983168
-0.0050407597 0.16979903 -0.35744345 0.16145498 0.06687152 0.19903114 0.11793829 -0.23355255
0.13018422 -0.097637326 -0.06907225 0.21190917 -0.001927195 -0.11381977 -0.13252062 -0.22600642
-0.23070167 0.1510983 -0.1439575 -0.43175063 -0.026236236 0.02177456 -0.29542676 -0.036992326
-0.1653007 -0.14698872 -0.13703041 -0.17677285 -0.17553152 0.019019024 -0.16888916 0.14661084
-0.35450932 0.1298046 -0.21552451 -0.22969073 0.016578559 -0.20329303 -0.16093111 -0.25521335
0.16949262 -0.17713927 -0.26265407 -0.06991588 0.17207095 0.10406087 -0.11497811 -0.093962245
0.064181305 -0.11532295 0.052599084 -0.2179941 0.13736713 0.077460274 0.092402205 -0.004880752
-0.11670374 0.13650045 0.035102896 -0.012287723 -0.095212124 -0.12886979 -0.2700289 -0.15579896
-0.13032328 0.20985788 0.15936306 -0.13485403 0.19675402 0.12285311 -0.016396128 -0.1511635
-0.06174541 0.09004749 -0.18358538 0.17785983 0.1971477 0.15548475 0.18959033 -0.08562168
-0.22476518 0.1969743 -0.27371445 0.09334187 0.049202323 0.19387852 -0.011958511 -0.17522545
0.14041373 -0.15768921 0.21282268 -0.16363433 0.10456349 0.15682343 -0.023944916 -0.1600322
0.18727584 -0.19201188 0.07189648 -0.17434353 0.21533202 -0.2588161 -0.17264247 -0.2665176
-0.1026979 -0.28791195 -0.030705485 -0.17779975 0.08869554 -0.18779303 -0.15117873 -0.17324619
-0.045764815 -0.34674066 0.13615271 0.07375512 -0.10716264 -0.21687151 0.17033373 0.24598391
-0.29036477 0.20431265 0.19978249 0.26107177 0.011811681 -0.13139091 0.20932087 -0.04714366
0.19653027 0.08627009 -0.1830334 -0.18013206 -0.13519077 0.101583965 0.089092635 -0.1428904
0.10070493 -0.29021183 -0.08437366 -0.14973511 -0.10781367 -0.23175399 0.008138087 -0.32641137
0.19405283 0.12804897 -0.22273394 -0.142368 -0.021567425 0.09964823 -0.15864746 0.19506846
-0.0060363635 -0.3005957 -0.016572827 -0.016523808 0.12250487 -0.1136175 -0.2857515 -0.041419458
0.080085516 -0.063199915 -0.0709092 0.17965414 -0.003970742 -0.13118625 -0.14149521 0.16838123
-0.01519351 -0.2841052 -0.25020325 -0.021654412 -0.21374437 0.05291628 -0.19009459 0.07597126
0.12903757 -0.11843578 -0.04729998 0.08468368 -0.063924514 -0.1315565 -0.18596691 -0.055429958
0.123050466 0.002121313 0.08625262 -0.1982178 -0.14763305 0.08869765 -0.20417409 -0.054608926
